Model
________________________________________________________________________________
Layer (type)                        Output Shape                    Param #     
================================================================================
conv2d_1 (Conv2D)                   (None, 26, 26, 32)              320         
________________________________________________________________________________
conv2d_2 (Conv2D)                   (None, 24, 24, 64)              18496       
________________________________________________________________________________
max_pooling2d_1 (MaxPooling2D)      (None, 12, 12, 64)              0           
________________________________________________________________________________
dropout_1 (Dropout)                 (None, 12, 12, 64)              0           
________________________________________________________________________________
flatten_1 (Flatten)                 (None, 9216)                    0           
________________________________________________________________________________
dense_1 (Dense)                     (None, 128)                     1179776     
________________________________________________________________________________
dropout_2 (Dropout)                 (None, 128)                     0           
________________________________________________________________________________
dense_2 (Dense)                     (None, 10)                      1290        
================================================================================
Total params: 1,199,882
Trainable params: 1,199,882
Non-trainable params: 0
________________________________________________________________________________


